LaternRouge/results/trained_agent_v0.pt (torch, 558487 bytes, 6 tensors)

linear1.weight f4 [400, 1]
000000 40 7f 8a bd e8 09 f3 be 80 c6 70 bd 6e 84 27 bf
       -0.06762552 -0.47468495 -0.058783054 -0.65436447
000010 2e 9b 00 bf 70 59 50 3d f2 6c 12 bf 7c 0b 32 bf
       -0.50236785 0.050866544 -0.5719749 -0.69548774
000020 6c db 22 bf 94 04 22 bf 49 c8 1e 3e e4 0b 59 3f
       -0.6361606 -0.63288236 0.1550609 0.8478377
000030 98 ca 72 be e0 a2 94 bd a7 d9 5b 3f 00 8f 74 be
       -0.23710096 -0.072576284 0.85878986 -0.23882675
000040 48 0f e3 be 95 04 2b 3f fc 6e ad be 50 8b 98 be
       -0.44347596 0.66803867 -0.33873737 -0.29793787
000050 bb 89 fc 3e 16 55 6d bf b8 ec 46 be 27 d9 40 3f
       0.4932383 -0.92707956 -0.19426239 0.7533135
000060 bc 7c 15 bf 8c 48 35 bf e6 80 19 bf 95 40 a3 3e
       -0.58393455 -0.7081382 -0.5996231 0.3188521
000070 af 7e 70 3d 40 2c 5c bd 71 b9 ba 3d 74 4a 05 bf
       0.058714565 -0.053753138 0.091174014 -0.5206673
000080 98 10 2a bf a4 d1 55 bf 76 c1 4b bf e0 90 fe be
       -0.6643157 -0.8352301 -0.7959207 -0.49719906
000090 ac 2a c4 be 06 63 0c bf e6 3a c8 3e 14 1e 18 bf
       -0.38313806 -0.548386 0.39107436 -0.59420896
0000a0 75 6e f0 3e 7e 55 51 3f 40 7e 9c be c2 99 2b 3f
       0.46959272 0.81771076 -0.3056507 0.6703149
0000b0 00 da c2 bd fa 47 50 3f 04 24 8c be a4 06 4b bf
       -0.095142365 0.8135983 -0.27371228 -0.7930701
0000c0 e0 78 4f 3f b6 81 74 bf ce 78 28 3f 8e 44 42 3f
       0.81043816 -0.95510423 0.65809333 0.75885856
0000d0 46 05 45 3f 3e d6 a1 3e b4 a2 aa be 83 4a 3d 3f
       0.7696117 0.31608766 -0.33327258 0.7394182
0000e0 00 a6 20 bc 44 85 ae 3d b4 19 12 bf 09 ee 5a 3f
       -0.0098052025 0.08521512 -0.5707047 0.8551946
0000f0 a4 00 17 bf 05 3e 57 3f d5 33 83 3e 1e a7 0b bf
       -0.5898535 0.8407901 0.25625482 -0.54551876
000100 40 01 9a bc c0 bd 8a bc 5e c3 56 3f 17 76 b2 3e
       -0.018799424 -0.016936183 0.83891857 0.3485572
000110 88 86 a8 be 84 28 e6 be b7 d9 2c 3f 1c bd 26 bf
       -0.3291514 -0.44952786 0.67519706 -0.6513231
000120 5d ca 42 3f 00 13 02 be 90 8e 30 3f 28 83 d2 be
       0.7609003 -0.1270256 0.68967533 -0.4111569
000130 35 e7 e5 3e 1c 01 0d 3f fc f5 cb be d0 60 92 3e
       0.4490296 0.5507982 -0.3983611 0.28589487
000140 06 58 0b 3f 8c 05 a5 be 08 4b 2a bf 26 32 32 bf
       0.5443119 -0.32230794 -0.6652074 -0.6960777
000150 a8 f2 23 3f ff b0 7a 3f c0 fd 51 be d2 4a 0b 3f
       0.6404214 0.97926325 -0.20506954 0.5441104
000160 dc 6b ca 3e fc 96 4e bf e8 2f ae 3e 04 0b 28 bf
       0.39535415 -0.80699134 0.34020925 -0.6564181
000170 c8 6f 6d be f0 85 ac bd 04 39 15 3f 9d ad f7 3e
       -0.23187172 -0.08423984 0.58290124 0.48374644
000180 64 3a 97 be f2 50 50 3e d8 32 48 be ba c3 3d 3f
       -0.29536736 0.20343378 -0.19550645 0.7412678
000190 84 d8 34 bf 16 6c 0a bf e8 58 62 bf 09 32 2c 3f
       -0.70642877 -0.54071176 -0.8841691 0.6726385
0001a0 29 9c 57 3f c6 b1 3f 3f 48 f3 22 be 34 a1 24 bf
       0.84222656 0.74880636 -0.15913117 -0.64308476
0001b0 a0 e4 77 be 4e 8c 6e 3e 60 5e c1 bd fe 9d 82 3f
       -0.24208307 0.2329571 -0.09441829 1.0204465
0001c0 11 08 82 3f ba c9 09 bf fc 28 69 bf 7e 22 74 bf
       1.0158712 -0.53823435 -0.9107816 -0.9536513
0001d0 14 d6 9b be 66 45 a9 3d 03 dd 5d 3f e6 b6 81 3e
       -0.30436766 0.0826519 0.8666536 0.25334853
0001e0 3e 88 94 3e ef 96 44 3f 6b da 73 3f ec 21 23 3f
       0.29010195 0.76792806 0.95255154 0.63723636
0001f0 18 1c 05 be ec cd 30 3f 72 3d d3 3e f8 7b aa 3d
       -0.12998998 0.6906421 0.41257817 0.083244264
000200 e8 c2 69 be 6c 4a 92 3e ce 3f 35 3f 15 88 ca 3d
       -0.22828257 0.28572404 0.70800483 0.09889237
000210 0a 66 58 3f 7c da 29 bf 32 fb 2d 3e ec e2 3e 3f
       0.845307 -0.66349006 0.16990355 0.74565005
000220 28 ef 86 be 80 50 30 bf 2a 5b 7a bf b8 02 07 3f
       -0.26354337 -0.68872833 -0.97795355 0.52738523
000230 38 d7 1a bf 61 a2 52 3f 08 4f 55 bf 5d 50 7a 3f
       -0.6048465 0.8227902 -0.8332372 0.97778875
000240 00 8f 37 be b4 02 d1 be 48 90 83 be 2e e8 2a 3d
       -0.17925644 -0.40822375 -0.25696015 0.04172533
000250 4a 54 dd 3e 49 b6 a8 3d f4 cb 0e 3f 02 07 64 bf
       0.4322837 0.08237893 0.5577996 -0.89073193
000260 8c 7a e6 3e 22 82 3f 3f 75 41 da 3e e0 5e a4 bd
       0.4501537 0.7480794 0.42628065 -0.080259085
000270 b0 cf 5e 3f 18 17 7e be 40 83 0b bd 61 65 09 3f
       0.87035656 -0.24813497 -0.034060717 0.53670317
000280 33 0d ea 3d ae ff 20 bf 0a 3b 81 3f d6 7a 05 bf
       0.11428299 -0.62890136 1.0096142 -0.5214056
000290 00 5d a0 be e4 95 a9 be 1c 4e 34 3e 7c 97 07 bf
       -0.31320953 -0.3312217 0.17607921 -0.5296552
0002a0 3e b3 05 bf b5 5c d1 3e 12 c1 0c bf 90 23 b8 bd
       -0.52226627 0.40891042 -0.549821 -0.08991158
0002b0 d0 48 07 bf 3c da 81 be cd ce 21 3e 70 32 08 3f
       -0.5284548 -0.25361812 0.15801544 0.5320196
0002c0 ce 56 6a bf 7e 97 48 bf 55 b5 07 3e 18 a8 97 3e
       -0.91538703 -0.7835616 0.13252766 0.29620433
0002d0 ab 15 8b 3e 2b 36 78 3f 2e ff 90 3e 5e e7 39 bf
       0.2716497 0.96957654 0.28319687 -0.72618663
0002e0 6a 17 ae 3e 1c 88 61 3f 20 a0 9a bd d9 2b 69 3d
       0.3400224 0.8809831 -0.07550073 0.056926582
0002f0 81 ac 8a 3e b0 64 d3 bd 42 e2 45 3f 8c d6 75 bf
       0.27084735 -0.10321939 0.7729837 -0.960305
000300 70 97 3d be 81 d5 f1 3e 24 b5 de be 75 6d 7d 3f
       -0.185148 0.47233203 -0.43497574 0.98995143
000310 30 ea 67 bf 15 bd 80 3f 66 82 41 bf ea d9 28 3f
       -0.90591717 1.0057703 -0.755896 0.6595751
000320 1e 73 b1 3e 4e 08 1d bf d5 74 3a 3f 6c bb df be
       0.3465814 -0.61340797 0.7283452 -0.4369768
000330 1b 26 e1 3e 00 00 f5 bc 46 70 6a bf e3 65 d7 3e
       0.43974385 -0.029907227 -0.91577566 0.4206992
000340 c0 28 1e be 35 ff 11 3f 5c 50 cf be 1a d1 5c bf
       -0.15445232 0.5703004 -0.40490997 -0.86256564
000350 db 66 2a 3e c8 2f ab be 3b ec 67 3f 92 ee 21 bf
       0.16640799 -0.33434892 0.90594834 -0.63254654
000360 ad 37 ec 3d 50 3e e5 be 7e 6c d0 3e 90 5c 2b be
       0.11534057 -0.44774103 0.40707773 -0.16734529
000370 58 a8 25 be 70 aa ab 3e 9a e9 64 bf 58 65 74 bf
       -0.161775 0.3352847 -0.8941895 -0.9546714
000380 b0 0d 24 3e 0c 12 72 bf b9 b9 e6 3e 4c 7e 2c bf
       0.16020846 -0.9455879 0.4506357 -0.67380214
000390 f4 be 43 bf 90 51 68 be e0 87 ab bd f5 5f a4 3d
       -0.76463246 -0.22687364 -0.083755255 0.08026115
0003a0 34 f7 15 bf 9f bf e3 3e 18 66 6a bf a4 da ac 3d
       -0.5858033 0.44482133 -0.9156203 0.0844014
0003b0 e2 57 00 bf 2c cf d3 3e 7e 73 99 3e fa d2 57 3f
       -0.501341 0.41368997 0.29970926 0.843063
0003c0 54 4e a8 be a4 ba 64 bf 81 a8 31 3e 8b 40 28 3f
       -0.3287226 -0.8934729 0.17349435 0.65723485
0003d0 28 2c 72 bf 3c 85 54 bf fa 88 61 bf b1 52 32 3f
       -0.9459863 -0.830158 -0.88099635 0.6965743
0003e0 e8 5f 13 3f ac dc 68 3f e6 1f 15 bf c0 e6 d3 3c
       0.57568216 0.9096172 -0.582518 0.025866866
0003f0 10 66 e5 bd cd ee 19 3e e6 31 4d bf 40 fd 45 bd
       -0.112011075 0.15032502 -0.80154264 -0.04833722

linear1.bias f4 [400]
000000 e0 a7 36 3c ef 9b 3b bd 80 91 07 3b ca 66 a5 3c
       0.011148423 -0.045803007 0.002068609 0.020190615
000010 22 c0 df 3c 87 4c 66 3d ca 6e ab bc 50 f0 12 3b
       0.027313296 0.056225326 -0.020926852 0.002242107
000020 20 0d 5b bb c0 77 ce bb 87 f2 00 3d d0 13 9e bb
       -0.003342457 -0.0063008964 0.031481292 -0.004824139
000030 de a9 cf 3c b2 b2 85 3c fb 3a 87 3d 78 ff 23 bc
       0.025349554 0.01632056 0.066030465 -0.010009639
000040 50 60 ce bb 7e d8 10 bc ad d0 35 bd 7c 41 5c 3c
       -0.0062981024 -0.008840678 -0.04438846 0.013443347
000050 1f be 1b bc fd 0a 47 3d 28 ae 26 bd 74 42 18 3d
       -0.009505778 0.048594464 -0.040693432 0.03717275
000060 20 37 8a bc 29 08 4a 3d 58 f3 32 bc a5 b0 87 bc
       -0.016871989 0.04932419 -0.0109222755 -0.016563723
000070 9b ca 7b bd 34 5c 62 3c 59 f2 69 3c 4d b0 2f 3d
       -0.061472517 0.013815928 0.014278972 0.042892743
000080 cf 1a 25 3d 0f 7a 32 bd b4 b4 49 3c 0a 03 d6 3c
       0.04030877 -0.043573435 0.012311149 0.026124496
000090 2c b8 94 bc 87 a2 0b 3d 78 37 8d 3d c0 5e a5 3b
       -0.018154226 0.034090545 0.068953454 0.0050466955
0000a0 54 d3 4a 3d fa b4 31 3c 46 3d a6 3c 02 5f 39 3d
       0.049517944 0.010846371 0.02029289 0.045256622
0000b0 78 92 55 bc 39 fe ca 3b a9 e9 26 3d 63 d3 c9 bc
       -0.013035409 0.0061948565 0.04075018 -0.02463693
0000c0 bd da 66 3d 27 f7 3b 3d 4c 18 9d 3d d7 a0 df bb
       0.05636095 0.04589 0.0767065 -0.0068245935
0000d0 63 70 71 3d 39 3e c2 3c 8e 84 0d bd 6c a6 9b 3d
       0.05894507 0.02371131 -0.034550242 0.07600102
0000e0 c8 23 43 bc 0c f3 57 3d c2 42 a5 3c a4 c4 7c 3d
       -0.011910386 0.052722022 0.020173434 0.06171097
0000f0 bd df b5 bc 1b d1 41 3c d3 6a 40 3d 1e 94 8c 3c
       -0.022201413 0.01182964 0.046976876 0.017160472
000100 20 4a 5c bc 2e c5 0c bd 17 54 9d 3d a9 9c f0 3c
       -0.013445407 -0.034367733 0.076820545 0.029371576
000110 d8 d3 07 3c 00 c7 f9 39 a9 4a df bb ad ab 2a bd
       0.008290254 0.00047641248 -0.00681432 -0.04166763
000120 99 52 56 3d 93 1e 2c bd 3f f1 92 3d 8c 3f 00 3c
       0.052324865 -0.042021345 0.0717492 0.007827651
000130 f2 01 c6 ba 3e f0 18 bc 00 c0 9e 3a 81 6c 81 3d
       -0.0015106781 -0.009334622 0.0012111664 0.063195236
000140 93 7a ba 3c a8 82 99 bb ca 10 a1 bc 86 eb 19 bd
       0.022763526 -0.004684765 -0.019661326 -0.03757813
000150 3a 65 97 3d 4a 5f e8 3c 0c d4 63 3c e0 44 53 3b
       0.07392354 0.02836575 0.013905536 0.0032237098
000160 50 61 3c 3d 40 00 db bc 47 a7 20 3c 54 d6 2b 3c
       0.045991242 -0.026733518 0.009805507 0.0104881115
000170 98 04 40 bc f3 f7 bd bc d2 ca dc 3c 10 1f fb 3c
       -0.011719845 -0.02318952 0.026952181 0.03065446
000180 32 dd a2 3c 19 18 8f 3c 52 d9 d0 3c 71 a9 11 3d
       0.019880865 0.017467545 0.025494251 0.035561983
000190 c8 87 36 bc 5c 67 61 3c 75 48 0a bd 38 47 30 3c
       -0.011140771 0.013757553 -0.033760507 0.010759167
0001a0 9f 07 2f 3c c6 66 18 3d 96 0a f8 3c fa 9b f2 bc
       0.010682969 0.037207387 0.030278485 -0.029615391
0001b0 00 ca fd 38 fa 83 90 3d 65 d2 25 bd 45 81 5f 3d
       0.000121016055 0.070564225 -0.04048385 0.05456664
0001c0 f2 46 8e 3d e2 91 da 3c 2c 03 7e 3c e0 f5 f0 bc
       0.069471255 0.02668089 0.015503686 -0.029414117
0001d0 fa 28 b6 3c 8e 59 2c ba c2 cc e1 3c b5 2b 80 3c
       0.022236336 -0.0006574624 0.027563456 0.015645841
0001e0 25 fb 78 3d 50 ee 82 3d 3e 1f fc 3c f0 20 65 bb
       0.060786385 0.06393111 0.030776616 -0.003496226
0001f0 80 e6 76 3b d6 1b 45 3c 19 e0 ed 3b e6 96 ae 3d
       0.003767401 0.012030562 0.0072593805 0.08524875
000200 8c e9 37 bc 40 fd c3 3c 0a 19 23 3d 76 26 f9 3b
       -0.0112251155 0.02392447 0.0398188 0.007603462
000210 ef cb c4 3c 8b 00 1f 3d cd 86 6a bc b0 f6 73 bc
       0.024023024 0.038818877 -0.014314366 -0.014890358
000220 2f 88 4b 3d 23 82 22 3d aa 80 b4 bc 95 d6 d5 3c
       0.04969042 0.03967489 -0.022034008 0.026103297
000230 08 4f 5e bc 5b 69 0e 3d 13 fd 4a bd ae cb 0e 3c
       -0.013568647 0.034768444 -0.049557757 0.008715553
000240 cd 56 35 3d 60 1e 8f bc ad 23 f2 bc c6 19 9b 3d
       0.044272233 -0.017470539 -0.029558027 0.07573275
000250 e5 0e 4f 3c 46 f3 4b 3d 45 c0 1c 3d bf dc 1b 3d
       0.0126378285 0.04979255 0.0382693 0.038052317
000260 c0 fa 95 3d 8c 8b 0b 3a 0e 75 ef 3b 98 02 ec bb
       0.073232174 0.00053232233 0.007307655 -0.0072024576
000270 8d f6 0e 3d a8 3f 44 bc b2 fc da 3c b7 24 a7 3c
       0.034903098 -0.011978067 0.026731823 0.02040325
000280 11 db e6 3a 92 ce c8 3c 4d 48 94 3c b3 45 d6 bc
       0.0017612894 0.024512563 0.018100882 -0.026156282
000290 f7 b5 a8 bc 64 d0 7f 3c 16 ac 19 3d 2a cb b4 3c
       -0.02059458 0.015613649 0.03751763 0.022069532
0002a0 f1 27 37 3d cd b0 cf 3c 80 da a6 b9 15 80 2d bd
       0.044715825 0.02535286 -0.00031824782 -0.042358477
0002b0 95 d5 39 bd 0b ed 18 3d a6 12 35 3d db 22 39 3d
       -0.045369703 0.037335437 0.044207238 0.045199256
0002c0 00 3c fd bb f0 34 a5 bc e3 4b 33 3d ea b8 4b 3d
       -0.0077281 -0.020166844 0.043773543 0.049736895
0002d0 d1 07 94 3d 04 af 18 3d a0 84 9a 3d e0 fd 09 bb
       0.07228053 0.037276283 0.075448275 -0.0021055862
0002e0 41 1c 89 3d 07 42 2c 3d e7 20 ec bc 65 37 8c 3c
       0.06694842 0.042055156 -0.028824283 0.017116258
0002f0 94 cf 2c 3d ba 0e 90 bc 5a 8a ae 3c 9a 74 b9 bc
       0.04219015 -0.017585147 0.021306206 -0.022638608
000300 75 2a 2f bd 1a 86 1e 3c e2 04 8b 3c 6a 23 23 bc
       -0.0427651 0.009675527 0.016970102 -0.009957174
000310 9d b3 36 3d 79 62 1b 3d 2a c6 92 bc 8f 12 8c 3d
       0.044604886 0.037935708 -0.017916758 0.06839477
000320 11 7d 80 3d 36 b4 8b bc dd 22 9b 3d 14 64 09 bd
       0.062738545 -0.017053705 0.07575009 -0.033542708
000330 7d 49 99 3d 90 ca b9 3b 60 45 16 bb 5a 6c 72 3d
       0.0748472 0.0056698993 -0.0022929534 0.059185363
000340 20 ce 5f 3b 3b 55 29 3c b4 1f 6c 3c 49 49 45 3d
       0.003414996 0.010335262 0.0144118555 0.048165593
000350 8e 5c 9d 3c 7d 82 04 3d 0c 7f b3 3c 88 2a 46 3c
       0.019209173 0.032351006 0.021911167 0.012095101
000360 32 c2 87 3d c0 c8 4d ba d5 48 70 3d 30 e7 cb bc
       0.06628837 -0.00078500435 0.058663208 -0.024890512
000370 73 7c 4a 3d 82 0b 9a bb 33 70 e5 bc ec cf 25 bc
       0.04943509 -0.004701079 -0.028007602 -0.010120373
000380 39 58 2e 3d 17 25 f6 bc f3 f1 07 3c 76 ab f8 3c
       0.042564604 -0.030046983 0.008297431 0.030355196
000390 65 b8 0a bd c0 2a 26 bc 53 8e c4 bc 57 c6 cc 3c
       -0.03386726 -0.010142028 -0.023993647 0.02499692
0003a0 0a 21 4a bd c6 1b 86 3d 4d 8d 3f bd 3b 84 7d 3c
       -0.049347915 0.06548266 -0.046765614 0.015473421
0003b0 a0 dd 26 bd fd dd 55 bc d8 7b 5b 3d c5 65 8d bc
       -0.0407387 -0.013053414 0.053584903 -0.017260442
0003c0 0a 74 41 bd 0a 38 a8 bc 8b 5f 1e 3d de 49 49 3d
       -0.047229804 -0.020534534 0.038665336 0.04914271
0003d0 b3 43 bf bc 38 af 34 3c c0 23 18 3c fa 3b 65 3d
       -0.023347711 0.0110281035 0.009285867 0.0559654
0003e0 65 f8 36 bc 3b a6 53 3d ac 26 3b bc 9d 3f 46 bd
       -0.01116762 0.0516722 -0.011422794 -0.04840051
0003f0 8f 97 08 3d 6b 67 91 ba e3 48 14 bd c0 56 b0 bb
       0.033347663 -0.0011093443 -0.036202323 -0.005381435

linear2.weight f4 [300, 400]
000000 75 a2 2d bd 6a fc 95 3c 16 13 ba 3c 1a f6 13 bd
       -0.04239126 0.018308837 0.022714179 -0.036123373
000010 c2 8b 25 bd 90 c1 68 3b d6 8b 12 bd 6d b8 ef bc
       -0.040416487 0.0035515763 -0.03577789 -0.029262746
000020 ea bd ed 3c 2a a8 81 3c 44 01 fd 3b 9e a3 9e 3c
       0.029021222 0.015827257 0.007721098 0.019365128
000030 10 48 88 3b a9 b6 26 3d 0b 2e 1c 3d 7f 50 48 bd
       0.004158981 0.040701542 0.038129847 -0.048904892
000040 28 77 83 3b db ae 7f 3d 40 5c f7 3a 08 cd 44 bc
       0.0040120073 0.062422615 0.0018872097 -0.012011774
000050 21 6a 55 3d 0c 8e 84 bc 2f e0 1f 3d d8 78 af 3c
       0.052103166 -0.016181014 0.039032158 0.021419927
000060 70 73 e8 3b fe 42 c1 3c 43 1a fd bc 20 78 f5 3c
       0.0070938393 0.023591515 -0.030896312 0.029964507
000070 80 ea a6 bc 4d f1 45 bd bd 18 6a 3d 76 95 88 3c
       -0.02037549 -0.048325825 0.0571525 0.016672831
000080 ab 8c 00 3d 58 e3 c9 3b 50 2b e7 bc e7 36 14 3d
       0.03138415 0.0061611347 -0.028218895 0.03618517
000090 a3 15 3c bd be c7 e9 3c e0 1c 62 3d ac 59 64 3c
       -0.045919072 0.028537627 0.05520332 0.013937395
0000a0 a6 3d 50 3c e0 9b 9a bc 42 1c 24 bd c2 ab 54 ba
       0.012710011 -0.018873155 -0.04006601 -0.0008112752
0000b0 c0 d3 ed 3a f5 78 96 3d cd d8 ab bc c0 b0 18 3a
       0.0018144771 0.073472895 -0.020977402 0.00058246776
0000c0 79 4c 98 3d fa 76 9f bc fe f6 a8 3b 9b 11 ab bc
       0.07436461 -0.019465912 0.005156397 -0.020882418
0000d0 2e 3f bd 3c 1d ee 44 3c 0e 80 f7 3c 84 62 76 3d
       0.023101415 0.012019661 0.030212428 0.060152546
0000e0 1b 80 01 3d 90 d6 2d bb d7 5d c3 bc 9e 32 9a bc
       0.03161631 -0.0026525594 -0.023848457 -0.018822964
0000f0 6a 8b a3 3c 1e 3b a1 3c 64 dc ae b9 8d 47 19 3d
       0.019963939 0.01968151 -0.0003335207 0.03742175
000100 0a 62 b9 3c e3 39 21 3d 7f 93 21 3d a0 a5 3e 3d
       0.022629756 0.039361846 0.039447304 0.04654467
000110 00 e3 89 39 2a 0f a4 3c 74 79 85 3c c2 cf 49 bd
       0.00026299804 0.020026762 0.016293265 -0.0492704
000120 a0 b8 93 3c 00 c8 bc 39 9d 18 96 3d af a8 3c 3d
       0.018032372 0.00036007166 0.07328913 0.046059307
000130 12 4c e5 3c 87 05 ef 3c c8 33 15 3c 36 5f 98 3d
       0.027990375 0.02917744 0.009106584 0.07440035
000140 ab 56 89 bc 0f 30 30 bd 58 23 d9 3b 80 a4 2a bc
       -0.01676496 -0.043014582 0.0066265278 -0.010415196
000150 38 d6 79 3d af 5e 86 bc 8c 14 62 3c ea 69 4e 3c
       0.06099531 -0.01640257 0.013798844 0.012598494
000160 79 b0 96 3d 32 be f3 3c f2 0c 89 bc 68 f7 42 3c
       0.07357878 0.029753778 -0.016729806 0.011899807
000170 6a dd 9d bc 25 ac 4b 3d 68 0b 0b 3d 4c 5d 38 3d
       -0.019270618 0.049724717 0.033946425 0.04501085
000180 b0 71 c7 bb f0 e6 5d 3d ed ee 20 3d 97 4d 68 bc
       -0.0060865507 0.054175317 0.039290357 -0.014178655
000190 b2 68 35 bd f4 ea 3e 3c 02 5c 9e 3c 8b 2b eb 3b
       -0.0442893 0.011652697 0.019330982 0.0071768216
0001a0 92 81 40 3c 54 15 b3 3c 82 2d 1f bd 72 87 e4 3c
       0.011749642 0.021860756 -0.03886176 0.027896617
0001b0 d4 6a 67 3c 97 d0 20 3c da 47 8b bc 9a 2e 96 3d
       0.014124591 0.009815357 -0.017002035 0.07333107
0001c0 e8 31 69 3d e0 f6 33 3b 5a 8a aa 3c 9f 7b 39 bd
       0.05693236 0.0027460381 0.020817924 -0.04528391
0001d0 e7 bf bb bc 98 9d 93 3d 24 00 fa 3c b1 2b f7 3c
       -0.022918655 0.07207793 0.030517645 0.0301722
0001e0 9a 1b a1 bc 28 b5 9b 3d 9b a8 99 3d b5 5b 1f 3c
       -0.019666482 0.07602912 0.07502862 0.0097264545
0001f0 ba cb 80 3c 1a 70 a5 bc 07 a0 89 3d a4 78 7e 3c
       0.015722144 -0.020195056 0.06719976 0.015531693
000200 27 7a f6 bc 39 e6 cc 3c 80 f8 39 3c 99 1d 6c 3d
       -0.030087544 0.025012122 0.011350751 0.057645414
000210 2b 3a 28 3d 52 ec b7 3c b7 d8 3a 3d f0 66 8b bc
       0.0410711 0.022451553 0.04561683 -0.017016858
000220 14 e2 5e bc 70 db ce 3b 76 06 fc 3c e3 cf 8b bc
       -0.013603706 0.00631278 0.0307648 -0.017066902
000230 d0 da 5d 3b fb e5 42 3d a8 fd 26 bd d5 4b b1 bb
       0.0033852346 0.047582608 -0.04076925 -0.005410651
000240 25 c8 11 bd a8 eb b8 bb d6 c3 96 3c 3d c9 2e 3a
       -0.035591263 -0.005643327 0.018403929 0.000666756
000250 fd 3f 6b bc b8 92 ef 3c b1 fe 91 3d 22 5b 35 bd
       -0.014358518 0.029244766 0.07128657 -0.044276364
000260 9d 4c 90 3c c3 cc 73 3d e0 ea 93 3d 42 b1 df 3c
       0.017614657 0.059521448 0.07222533 0.027306203
000270 09 1c 7c 3d 8a 23 af bc 53 18 30 3d fd e5 ed 3c
       0.061550174 -0.021379251 0.042991947 0.029040331
000280 58 a8 e7 3c 76 6f 92 3c bb d6 94 3d af 87 0f 3d
       0.028278515 0.017875414 0.07267519 0.035041507
000290 43 29 01 3d 9e e2 12 bd 41 a5 61 3b 9a 51 b3 3c
       0.03153349 -0.03586065 0.0034430774 0.021889497
0002a0 37 4c 2c 3d c7 b1 90 bc 68 ac c0 bb 80 f3 b2 bc
       0.04206487 -0.017662896 -0.0058799274 -0.021844625
0002b0 00 36 e3 bc 21 cb 2d 3d 9e 71 9d 3d af 91 d7 3c
       -0.02773571 0.042430047 0.076876864 0.026314585
0002c0 aa a9 a8 bc 57 e0 c2 bc 78 b7 cf 3c bb 73 03 3d
       -0.020588715 -0.023788614 0.02535604 0.03209279
0002d0 c0 5e 48 bc 4b fc 9d 3d 88 4f b9 3c 6b 13 0f bd
       -0.012229621 0.07714137 0.022620931 -0.034930628
0002e0 63 5d d1 3c f0 a0 85 3d d2 70 16 bd 72 5a aa 3d
       0.025557226 0.06524837 -0.036728688 0.08318032
0002f0 13 51 c6 bb b9 c1 40 3d 17 5b 1b 3d 14 5e 4f 3c
       -0.0060521453 0.04705975 0.037928667 0.012656707
000300 c4 5b 4f 3c 43 23 da 3c 45 30 49 3d 48 bc b3 3b
       0.012656156 0.026628142 0.0491183 0.0054850914
000310 f5 19 37 3d 08 d6 89 3d b3 63 20 bd fe 96 83 3d
       0.04470249 0.06730276 -0.03915758 0.06425284
000320 87 c7 5a 3d e6 bd 0a bd fb 76 8b bc 79 5d 09 3d
       0.05341294 -0.033872508 -0.017024508 0.033536408
000330 52 41 9f 3d 47 62 3e bd 90 32 ef bb 93 c3 e8 3a
       0.07776131 -0.046480443 -0.0072997287 0.0017758481
000340 b6 a9 25 bd a5 ef 82 3d 8e e6 10 bd 87 8c 3a 3d
       -0.040445052 0.06393365 -0.035376124 0.045544174
000350 3d 20 14 3d 40 09 b6 3a 72 09 38 3d 80 dc 1c 3c
       0.036163557 0.0013888255 0.044930883 0.009574056
000360 1b a8 30 3c 70 1f 85 bc 20 6b 42 3d 58 76 79 bc
       0.010782267 -0.016250342 0.047465444 -0.015225969
000370 80 77 06 3b e2 3c e0 3c 02 a9 45 bd c6 60 83 bc
       0.0020518005 0.027372781 -0.04825688 -0.016037356
000380 70 01 4a 3d c9 95 01 3d 12 61 bd 3b f6 10 80 3c
       0.049317777 0.031636987 0.005779394 0.015633088
000390 89 98 17 3d c0 ee b0 ba 3c 4e 78 3c 7f b2 b2 3b
       0.037010703 -0.0013498887 0.015155371 0.0054534073
0003a0 79 cf 43 3d cc 6c b6 b9 6d a0 1b bd c9 4b e9 bb
       0.047805283 -0.00034794805 -0.03799479 -0.00711963
0003b0 ce 1b bb 3c 7f ee 58 3d 18 23 5f 3d fd e0 2e 3d
       0.022840407 0.052961823 0.054476827 0.042695034
0003c0 b2 9e c8 3c f9 f4 46 3d 41 4b 28 3d 8c d5 f0 3c
       0.024489734 0.048573468 0.041087393 0.029398702
0003d0 a3 69 3e bd 00 96 54 b9 2d ab 05 3d 6b f6 d5 3b
       -0.04648746 -0.00020273775 0.03263395 0.0065296195
0003e0 3e 67 42 bc b7 87 b3 bc 14 5c 04 bd 3e 6f e6 3c
       -0.011865435 -0.0219153 -0.032314375 0.028129216
0003f0 b5 bb 19 3d 06 76 a7 3d cc 0d 09 3c d8 f1 ee bb
       0.037532527 0.08176808 0.008365106 -0.0072920136

linear2.bias f4 [300]
000000 3a 4a 35 3d e1 34 df bc a2 5a 44 bd 3f 8a f0 bc
       0.04426024 -0.027246894 -0.047937997 -0.029362796
000010 33 0b 61 bd 9d ea c2 3c 03 6d 79 3d c6 ca d4 3c
       -0.05494232 0.023793513 0.060894977 0.025975596
000020 b9 a5 85 3d de f1 34 3d 49 d6 10 3b 61 57 a2 bc
       0.0652575 0.044175975 0.002210038 -0.019817056
000030 ee 4a 1f bd b7 34 02 3d 8b a9 2b bd 70 ea 6c 3d
       -0.038889818 0.031788554 -0.041909736 0.057840765
000040 fd 98 2d bd a3 8e 6b 3d 10 84 e8 3b 96 68 16 bd
       -0.04238223 0.057509076 0.007095821 -0.036720835
000050 bc fd 92 3c 29 d8 8d 3d da 9f b3 bc 8e f0 f4 bc
       0.017943256 0.06925995 -0.02192681 -0.029899862
000060 df fe 81 3c 94 8f 87 3d 0f 1f 5c bd 91 04 08 3c
       0.015868602 0.06619182 -0.053740557 0.00830187
000070 30 8c a6 3c 3b d5 b9 3c ba be 08 3d ce c8 2b 3d
       0.020330518 0.022684684 0.033385016 0.04193955
000080 9c 85 1c bd 17 c9 ec ba bd d6 86 bc 55 ba fc 3b
       -0.038213357 -0.00180653 -0.016459817 0.007712642
000090 23 e0 3d bd 1a c8 b0 3c de 58 53 3c 00 ed 55 bb
       -0.04635633 0.02157979 0.012899606 -0.0032642484
0000a0 f0 02 a3 3b d1 42 94 3d 0a 32 73 3d da 3f 12 bd
       0.0049747154 0.07239307 0.059373893 -0.035705425
0000b0 ea 7c a3 bb 3c f3 05 b9 4a 9a 34 3d 8c 16 ac 3c
       -0.004989256 -0.0001277448 0.044092454 0.021006845
0000c0 9e 17 32 3d 42 8e 8b bc 16 7d a1 3d b0 e0 a0 3d
       0.043479554 -0.017035607 0.078851864 0.07855356
0000d0 95 8b 72 3d 6b e5 0a 3d d8 2d 35 3d 93 5e 3c 3b
       0.059215147 0.033910196 0.044233173 0.0028742894
0000e0 9e 9e 2b bd d8 86 4e 3d fc cd c2 3c e2 60 12 3d
       -0.041899316 0.050421566 0.023779862 0.035736926
0000f0 a6 d8 21 bd 96 ed 74 3d b8 9a 60 3c 00 63 58 3d
       -0.039513253 0.059796892 0.013708763 0.05282879
000100 5d ce c5 3c bc 6a 83 3c 35 a0 9e 3d 28 70 65 3d
       0.024146253 0.016042106 0.07745401 0.056015164
000110 be 83 c6 bc 5c 14 a5 3c 5b c1 e9 3b e2 83 49 bd
       -0.024232741 0.02015131 0.0071336455 -0.04919804
000120 39 87 37 3d cd c7 63 bc 6d 55 90 3d 30 7b 1b bc
       0.044806693 -0.013902617 0.07047544 -0.009489819
000130 90 41 50 bd 58 24 94 3c 50 d4 09 bd 5c b8 39 bc
       -0.050843775 0.018083736 -0.033649743 -0.011335459
000140 86 84 46 bc 17 60 7f bc 8c 12 5a 3c 43 43 98 bb
       -0.012116557 -0.015586874 0.013310086 -0.00464669
000150 e0 5a 58 3d d0 24 84 3c c8 47 ed 3c d7 b3 ec bc
       0.05282104 0.016130835 0.028964892 -0.028894348
000160 b0 e2 3f 3d 07 e4 b4 3b 32 a4 63 3d a8 7f 7e 3c
       0.046847045 0.005520347 0.05557651 0.015533365
000170 77 7b 7f 3c 5e 80 b2 bc a4 b0 9d bc 7e 1b 68 3d
       0.015593401 -0.021789726 -0.019249268 0.056666844
000180 c0 e6 bd 3c 8e 8b cd bc 76 a3 dc bc 8c 27 34 bd
       0.02318132 -0.025090959 -0.026933413 -0.043983027
000190 20 26 d0 3c 25 55 63 bd 90 81 5d 3d d6 b7 b3 3c
       0.025408804 -0.055501122 0.05407864 0.021938246
0001a0 1d 11 9a 3d ea 0c 87 3d a0 cc 66 3d 0b 8c 27 bd
       0.07522795 0.0659426 0.05634749 -0.04090504
0001b0 1f d1 93 3d 8a 17 5d 3d f2 91 1c 3d e5 0b 2d 3d
       0.07217621 0.053977527 0.03822512 0.04224767
0001c0 18 f6 90 3c 60 a1 1e 3c c0 50 8e 3c 5e e8 48 3c
       0.017695472 0.0096820295 0.017372489 0.012262432
0001d0 6a 70 19 bd ee 22 04 bd 9f 1b 31 3d d9 18 75 3d
       -0.037460722 -0.032259874 0.043239232 0.05983815
0001e0 30 aa b1 bc 35 21 8c 3d 58 68 6c bd 60 d7 80 3b
       -0.021687597 0.06842271 -0.057716697 0.0039319247
0001f0 18 83 bc 3c c1 f9 f7 bc 30 64 d5 bc a1 18 9f 3d
       0.02301173 -0.03027046 -0.02604875 0.077683695
000200 31 f7 0c 3d 7f e1 fa bc b6 d5 ce 3c 43 ea aa bb
       0.034415428 -0.030625103 0.02524839 -0.0052159145
000210 b4 5b fe 3c 28 28 1a 3d 3d 9d 2b 3d 30 83 53 3d
       0.031049587 0.037635952 0.041898 0.051638782
000220 4a f7 3e 3d 82 90 58 bd 10 5b 36 3b 41 27 61 3d
       0.046622552 -0.05287219 0.0027825274 0.054969076
000230 4f da fb bb 91 9a 54 bb 08 98 9b 3d d4 ab 0a bc
       -0.0076859365 -0.0032440762 0.07597357 -0.008463819
000240 83 96 c7 bc 44 d4 17 3d e7 9e 24 bd 4c c0 9b bc
       -0.024363762 0.037067667 -0.040190604 -0.019012593
000250 5f d7 ad 3c 23 a1 a8 bc 8b a3 37 bb aa 19 9d 3d
       0.021220861 -0.020584648 -0.0028021063 0.07670911
000260 67 3b 4d 3d 82 1a 98 3d 58 eb 01 bd 85 13 a2 3d
       0.05010548 0.07426931 -0.031718582 0.07913879
000270 36 eb 4c 3d b6 ac fa bc 1a d3 d8 bc 28 5e 34 3d
       0.050029002 -0.030599933 -0.026467849 0.044035107
000280 08 aa 70 3c 00 2e a0 3a ed 2f 51 bc d5 9a a1 3c
       0.014688976 0.001222074 -0.012767774 0.01972715
000290 02 ab 04 3c 80 de 3c bd 0d 44 c0 3c 0e 02 5e 3d
       0.008097412 -0.04611063 0.02346995 0.05420118
0002a0 40 a2 42 bd 95 77 b0 3c 3f a4 87 3d fc 4a 6e bd
       -0.047518015 0.021541396 0.06623124 -0.05817698
0002b0 d8 3d 39 3c 8e ea 94 3d 2b 87 55 bd 07 7b 54 bd
       0.011306249 0.072713 -0.05213086 -0.05187514
0002c0 39 41 45 bc 48 ee d5 bb f1 45 2a 3d ea 36 bb bc
       -0.012039476 -0.0065286495 0.041570608 -0.022853334
0002d0 c0 02 26 bb 55 cd 8e 3d c2 38 14 bd a7 e5 86 3d
       -0.002533123 0.06972758 -0.03618694 0.065867715
0002e0 9f 26 8e 3d 07 c3 b1 bc 9a 71 3a bd 74 4b 92 bc
       0.0694096 -0.021699442 -0.045518495 -0.017858244
0002f0 e8 9d 62 bd 10 7b 29 3d 74 35 9e bc 89 ae 5e 3d
       -0.055326372 0.041377127 -0.019312598 0.05436567
000300 8b 73 08 3d 87 d8 4e bc 50 4e 45 3d ec dc 22 bc
       0.033313315 -0.012624866 0.048170388 -0.009940367
000310 dc 76 d9 3c 8e 2b 68 bd a0 d8 1a 3c 6f 08 04 3d
       0.026545934 -0.056682162 0.0094510615 0.032234605
000320 9e 8e 4e 3d 00 bf 2d bc 44 5e 17 3a 12 ee 74 bc
       0.05042898 -0.01060462 0.00057742395 -0.0149493385
000330 c1 6f ee 3c 7b 4c 9f 3d 92 6c 38 3d d2 01 87 3d
       0.029106023 0.07778259 0.045025416 0.06592144
000340 83 4e 06 bd d6 02 18 3d aa 36 20 3d a0 92 d6 3c
       -0.03278972 0.03711208 0.03911463 0.026192963
000350 0e 9a d0 bc 7e 60 03 3d 20 ae e9 3c c8 b8 5a bc
       -0.025464084 0.032074444 0.028525412 -0.013349719
000360 2c 9b 5d 3d 3e b9 3b bd a0 23 0d 3b 42 67 03 3d
       0.05410306 -0.045830958 0.0021536127 0.032080896
000370 c5 99 97 bc 34 c4 2f bd 8f 68 4d 3c 90 53 34 bd
       -0.01850594 -0.042911723 0.012537136 -0.044025004
000380 f5 a2 83 bc 60 1d e8 3b 3b 5d 69 3d 1e f0 8d bc
       -0.016068915 0.00708358 0.056973677 -0.01732641
000390 99 ad a4 bb cb 0f 17 bd 90 0a e0 bb 05 7e 3c bd
       -0.0050255773 -0.036880296 -0.0068371966 -0.04601862
0003a0 d0 0b 89 3c 00 0f e8 bb af 98 78 3c ef 9d 17 3b
       0.016729265 -0.0070818663 0.015173121 0.0023134907
0003b0 82 b8 52 3d b9 27 62 bd b2 f7 2b 3d c7 f1 3b bc
       0.05144549 -0.055213664 0.041984268 -0.011471218
0003c0 e4 46 82 3d 41 2d 4d bd 31 d7 8e 3d 9c 21 ed 3c
       0.063611776 -0.050091986 0.06974638 0.02894669
0003d0 88 64 9c 3c 9e 62 89 3d 10 c5 eb 3c 03 a9 fb bb
       0.019090906 0.06708263 0.02878049 -0.00768006
0003e0 b8 e6 44 3c e0 de 0a 3c 0b 2d b6 3c 62 ef c7 bc
       0.012017898 0.008475989 0.022238275 -0.024406139
0003f0 a0 21 97 3d 99 ba 30 bc 3a f0 c1 bc 37 5d 13 bb
       0.0737946 -0.010786676 -0.02367412 -0.002248598

linear3.weight f4 [60, 300]
000000 43 f5 2f 3c ea 8f 4e 3c d8 b3 11 3a 46 ed 13 3b
       0.010739627 0.012607554 0.000555811 0.0022571846
000010 4c 80 07 3a a4 99 07 3c 9d e3 2f 3c 9f 71 44 3c
       0.0005168959 0.008276377 0.01073542 0.01198998
000020 b9 85 ff 3b 28 db 68 3c 32 b5 86 3a ef a9 30 3c
       0.0077979234 0.014212407 0.0010277389 0.010782703
000030 46 52 42 3b fa b3 48 3c a9 bc db 3a d5 22 72 3c
       0.002965109 0.012249941 0.0016764599 0.014778812
000040 ac c9 ee 3a 84 16 16 3c 4b 53 2c bb 9c 1b 26 bb
       0.0018218062 0.009160642 -0.0026294764 -0.0025346046
000050 74 50 4d 3c dc 2a 58 3c e4 bf e6 3a 63 b6 43 3c
       0.012531389 0.013193812 0.0017604795 0.01194534
000060 9e 94 2d 3c 27 2a 12 3c 04 87 b8 3a 0d 6e 11 3c
       0.010594515 0.008921183 0.0014078324 0.008876336
000070 0c 56 e3 3a 43 cc db 3b f8 1c 1f 3c 66 cf 03 3b
       0.001734437 0.0067076995 0.0097114965 0.0020112633
000080 d0 3a 29 3a 6b 30 11 3c 2a e4 1b 3c 0d 14 3b 3c
       0.0006455602 0.008861641 0.009514848 0.011418355
000090 53 da a9 ba 81 0e 72 3c 62 61 ed 3b 36 d1 1e 3b
       -0.0012958742 0.014773966 0.007244275 0.0024233586
0000a0 7c d4 cf 3a c1 04 66 3c a6 84 46 3c 9c fb 3e 3b
       0.0015856172 0.014039219 0.012116587 0.002914167
0000b0 c5 40 06 3c 7a 72 31 3c a0 5e cd b9 68 a8 91 ba
       0.008194153 0.010830516 -0.00039171148 -0.0011112811
0000c0 b0 a6 50 3c 30 1c 0a 3c c0 ba 32 3c e6 d0 1d 3c
       0.012735054 0.008429572 0.0109087825 0.009632325
0000d0 93 ee 53 3c 0b e4 6a 3c 3e bc 55 3c 9d 41 5b 3c
       0.0129352985 0.014336596 0.013045369 0.013382343
0000e0 f8 80 86 3a 84 ae 62 3a 48 fb 21 3b 41 ed 8d ba
       0.0010261824 0.00086472207 0.0024716426 -0.0010828153
0000f0 b5 98 b5 ba 4d b7 10 3c 8c 67 09 ba d4 3c eb 3a
       -0.0013854714 0.008832765 -0.0005241565 0.0017947205
000100 be da 6d 3c ac a2 bd ba f2 ea 35 3c d8 a2 88 b9
       0.014517484 -0.0014468036 0.011103379 -0.0002606127
000110 b6 7e e0 ba 40 5d 44 3b 69 d2 38 3c c4 91 39 3b
       -0.0017127607 0.0029962808 0.011280634 0.0028315643
000120 e5 5b 29 3c de ff 49 3c 29 e3 50 3c 18 b5 e6 3a
       0.010336851 0.01232907 0.012749472 0.0017601578
000130 da eb 43 3b 90 2c 68 39 38 93 27 bb 80 c6 af 38
       0.0029895217 0.00022141845 -0.0025569927 8.381624e-05
000140 88 32 16 3c 43 41 51 3c 2d 81 38 3c 68 c8 2e 3c
       0.009167321 0.012771907 0.011261267 0.010667898
000150 ce 5f 31 3b e4 21 27 3b 88 c8 37 3b 9e e5 09 3b
       0.002706516 0.0025502378 0.002804311 0.0021041404
000160 5c 9d 0c 3b 03 24 43 3c 42 d1 2d 3b 2c 46 e5 ba
       0.0021456098 0.011910441 0.0026522432 -0.0017492226
000170 a2 db 5b 3c fc 9d 9f 3a 76 ce 0d 3c 75 b2 b3 ba
       0.013419064 0.001217782 0.008655181 -0.00137098
000180 a5 74 03 bb 60 8b fa 38 58 c0 08 3b ac 6a 28 3b
       -0.002005854 0.000119468896 0.00208666 0.0025698347
000190 25 9b 2c 3c 3a d8 15 bb 90 6d 14 bb 49 c3 06 3c
       0.010535036 -0.0022864477 -0.0022648312 0.008225271
0001a0 b2 b2 33 3c 3b c4 22 3c 1e de ca 3b 38 e1 78 3a
       0.010967897 0.00993448 0.006191029 0.00094940094
0001b0 91 d7 6e 3c 06 78 44 3b 4c fa e8 3a 6c 07 55 3c
       0.014577762 0.0029978766 0.001777479 0.013002258
0001c0 c0 a3 46 3c 28 d5 3f 3b c6 ce 45 3c 86 e6 47 3c
       0.012124002 0.0029271338 0.012073224 0.012200957
0001d0 34 d3 14 3a d0 2b 29 b9 ae b8 41 3c fc b1 44 3c
       0.00056772237 -0.00016133417 0.011823816 0.012005325
0001e0 93 78 3c 3c d2 b2 10 3c 50 61 c2 b9 c0 0d 2a 3a
       0.0115033565 0.008831697 -0.00037075067 0.0006487034
0001f0 c2 b6 12 3b 40 bf ad 39 c9 e6 c0 ba 0d 56 5d 3c
       0.0022386764 0.00033139624 -0.0014717217 0.013509286
000200 c1 fc 57 3c de 38 43 3b 1c f0 3c 3c 29 c9 10 3c
       0.01318282 0.0029788534 0.011531856 0.008837023
000210 c8 1c 64 ba 64 30 c7 3a 66 93 22 3c c4 da a8 3a
       -0.00087017985 0.0015196917 0.009922838 0.001288258
000220 b8 52 22 3c bd 74 99 ba 90 ed 6c 39 e3 45 5e 3c
       0.009907417 -0.0011707764 0.00022595213 0.013566467
000230 88 bb 1b 3c 6b 68 2d 3c 54 43 52 3c f2 3d d5 ba
       0.00950516 0.010583977 0.012833435 -0.0016269071
000240 3b e6 23 3c a0 92 60 3c 58 79 8e 3a 2c e1 38 3a
       0.010003622 0.013706833 0.0010869903 0.0007052596
000250 b0 07 27 3c b1 18 2d 3c 4e 95 d9 ba 15 1f 3a 3c
       0.010194704 0.010564969 -0.0016600282 0.01135995
000260 d1 e6 41 3c 5d 6a 2f 3c 20 52 ac ba 32 bd 3d 3c
       0.011834816 0.010706511 -0.0013147034 0.011580752
000270 f9 6a 5b 3c 69 4c 4a 3c bc 32 17 bb 8f f3 5a 3c
       0.0133922035 0.012347319 -0.0023071012 0.013363733
000280 c0 d8 96 3a 10 b8 12 bb 4f ce 37 3c da 80 fb 3b
       0.0011508688 -0.0022387542 0.011218621 0.0076752724
000290 f5 3b 5c 3c 9a f1 12 3b 01 97 12 bc 1e 08 21 3c
       0.013442029 0.0022421838 -0.008947135 0.009828595
0002a0 04 be f1 ba d2 fd 53 3c af 54 2a 3c d2 0a 5a bb
       -0.001844347 0.012938933 0.010396167 -0.003327061
0002b0 a8 da 25 3b 3d bb 56 3c 20 5e e7 39 70 97 9b 3a
       0.0025307331 0.0131061645 0.00044129882 0.0011870693
0002c0 14 ed 58 3c 36 fe 18 3b 76 60 1b 3c 70 e3 27 3b
       0.013240118 0.002334488 0.009483447 0.002561774
0002d0 48 7c dc 3a 9d c8 32 3c f4 e8 06 ba 3c 47 0e 3c
       0.0016821707 0.010912088 -0.0005146407 0.008683976
0002e0 db 3c 35 3c 70 c7 d8 39 b6 e6 26 3b 26 44 93 ba
       0.011061872 0.00041347323 0.0025467104 -0.001123552
0002f0 00 d6 6b 3a 57 eb c7 ba 78 e5 cd 3a cc 8b 31 3c
       0.0008996427 -0.0015252632 0.0015708646 0.010836553
000300 62 fe 37 3c 9d 1e e0 3b e4 a4 21 ba 34 f4 07 ba
       0.011230083 0.006839587 -0.0006166233 -0.00051862304
000310 dc f5 4c ba 20 93 b1 b9 74 da 1b bb 89 92 21 3c
       -0.00078186183 -0.00033869687 -0.0023781331 0.009861597
000320 a8 bc 5d 3c 4c 67 41 bb c4 e1 0d 3c e2 c5 25 3c
       0.013533749 -0.0029511033 0.008659784 0.01011798
000330 5a 39 5f 3c 4a be 3a 3c 61 77 48 3c 92 c1 02 3c
       0.0136245135 0.0113979075 0.012235493 0.007980721
000340 90 6f 2f 3c 87 40 0e bb e4 0c 98 3a d2 07 bb ba
       0.010707751 -0.0021705942 0.0011600521 -0.0014269298
000350 ac d3 1a bb c4 83 29 3b 68 7e 1c 3b e9 70 c3 ba
       -0.0023624701 0.0025865892 0.0023879055 -0.0014910969
000360 b8 ac 20 3c be 14 10 bb f6 e4 f6 ba fa 42 dd ba
       0.009806804 -0.002198502 -0.0018836546 -0.0016880922
000370 96 7e 0c 3c e4 12 17 3a b0 51 36 3c b0 c7 d0 3a
       0.008575102 0.0005763008 0.011127874 0.0015928652
000380 cf 0c 51 3c ac d5 22 3b 6f 0f 3c 3c c7 cb c2 ba
       0.012759401 0.0024846597 0.011478289 -0.0014861756
000390 07 0c 3c ba b4 0d 0a bb f0 79 ca 39 80 36 db 3a
       -0.0007173423 -0.0021065297 0.00038619293 0.0016724616
0003a0 a1 ff 4a 3c a6 81 2e 3c f5 01 59 3c f2 57 54 3c
       0.012390048 0.010651028 0.0132450955 0.012960421
0003b0 74 b7 db 3a 60 d0 23 ba 44 e5 08 3b 34 9d 44 3c
       0.0016763047 -0.0006249007 0.0020888606 0.012000371
0003c0 d1 e5 2f 3c 68 dc ee 39 1e 9e 22 3c 80 94 fb 3a
       0.010735945 0.00045559113 0.009925393 0.0019194037
0003d0 00 c0 4d b5 98 09 32 3c d8 b0 d5 39 c8 ea 5c 3c
       -7.664785e-07 0.010866545 0.00040758285 0.013483711
0003e0 db 61 1b 3c 45 87 06 bb 05 95 05 3c 48 f3 ed 3a
       0.00948378 -0.0020527404 0.008153205 0.0018154169
0003f0 de 76 72 3c 49 7e 35 3c b0 4a e8 3a 65 f9 25 3c
       0.014798848 0.011077472 0.0017722454 0.010130261

linear3.bias f4 [60]
000000 4a 94 52 3c f0 a2 5f 3c e6 57 1f bc de ee cb bb
       0.012852738 0.013649687 -0.009725546 -0.0062235435
000010 de 6c 6f 3c 48 69 06 3c 2e a1 5c bb 57 d1 20 bc
       0.014613358 0.008203812 -0.0033665407 -0.0098155355
000020 e8 0e 26 3c 8b 50 30 3c 9f 3b 5a 3c 1f c9 ed bb
       0.01013539 0.01076139 0.013319879 -0.0072566415
000030 d8 e1 18 bc 61 2d 38 3c e0 04 1a bc 69 43 4a 3c
       -0.009331189 0.011241288 -0.009400576 0.012345173
000040 53 15 4d 3c 8c ba 57 bc 64 57 10 bc 55 0d 4a 3c
       0.012517291 -0.013167035 -0.008809898 0.01233228
000050 4c 4d e1 bb 2a 73 2f 3c 8a da 34 3c 25 55 27 bc
       -0.0068756696 0.01070861 0.011038432 -0.010213171
000060 b4 8e 2a bc bf f1 3a 3c 04 a6 45 3c 2d 84 38 3c
       -0.01041 0.011410176 0.012063507 0.011261982
000070 02 68 66 3c df c7 27 bc e4 a2 38 3c ce 43 35 3c
       0.014062883 -0.010240524 0.011269305 0.011063529
000080 20 75 28 bc 16 7b 6e bc 9f 28 2f 3c 8c 26 33 3c
       -0.010281831 -0.014555713 0.010690837 0.010934483
000090 bf b5 51 3c 89 14 57 3c 7e aa 86 bc e7 19 4c 3c
       0.012799679 0.013127455 -0.016438719 0.0124573475
0000a0 ea c9 4c 3c 51 21 d4 bb de 2a 22 bc e9 41 18 bc
       0.012499312 -0.006473698 -0.009897916 -0.009293058
0000b0 f8 7b 0e bc 3c 76 2c bc ec 61 36 3c 4f 80 ed bb
       -0.008696549 -0.010526236 0.011131745 -0.0072479616
0000c0 fa f7 1f bc 4e 06 16 bc f1 5c 33 3c 7f 86 1a bc
       -0.009763712 -0.009156777 0.010947452 -0.00943148
0000d0 df 48 5d 3c 78 1b 2f 3c e1 63 20 bc a7 70 36 3c
       0.013506143 0.010687701 -0.009789438 0.011135257
0000e0 1a f2 11 bc 54 f8 3d 3c ef 1f 41 3c e8 10 9f 3c
       -0.008907819 0.011594851 0.011787399 0.019417241
